…
coded = layers.Dense(input_dim, activation=\"linear\")(decoded)\n\nautoencoder = keras.Model(input_layer, decoded, name=\"deep_autoencoder_ch2\")\n\nautoencoder.compile(\n    optimizer=\"adam\",\n    loss=\"mean_squared_error\"\n)\n\nautoencoder.summary()\n\nAutoencoder input_dim: 115\n\n\nModel: \"deep_autoencoder_ch2\"\n\n\n\n┏━━━━━━━━━━━━━━━━━━━━━━━━━━━━━━━━━┳━━━━━━━━━━━━━━━━━━━━━━━━┳━━━━━━━━━━━━━━━┓\n┃ Layer (type)                    ┃ Output Shape           ┃       Param # ┃\n┡━━━━━━━━━━━━━━━━━━━━━━━━━━━━━━━━━╇━━━━━━━━━━━━━━━━━━━━━━━━╇━━━━━━━━━━━━━━━┩\n│ input_layer (InputLayer)        │ (None, 115)            │             0 │\n├─────────────────────────────────┼────────────────────────┼───────────────┤\n│ dense (Dense)                   │ (None, 30)             │         3,480 │\n├─────────────────────────────────┼────────────────────────┼───────────────┤\n│ dense_1 (Dense)                 │ (None, 16)             │           496 │\n├─────────────────────────────────┼────────────────────────┼───────────────┤\n│ dense_2 (Dense)                 │ (None, 8)              │           136 │\n├─────────────────────────────────┼────────────────────────┼───────────────┤\n│ dense_3 (Dense)                 │ (None, 16)             │           144 │\n├─────────────────────────────────┼────────────────────────┼───────────────┤\n│ dense_4 (Dense)                 │ (None, 30)             │           510 │\n├─────────────────────────────────┼────────────────────────┼───────────────┤\n│ dense_5 (Dense)                 │ (None, 115)            │         3,565 │\n└─────────────────────────────────┴────────────────────────┴───────────────┘\n\n\n\n Total params: 8,331 (32.54 KB)\n\n\n\n Trainable params: 8,331 (32.54 KB)\n\n\n\n Non-trainable params: 0 (0.00 B)\n\n\n\n\n# Ensure numeric float dtype\nX_train_ae = X_train.astype(\"float32\")\nX_test_ae  = X_test.astype(\"float32\")\n\nhistory = autoencoder.fit(\n    X_train_ae,\n    X_train_ae,        # re
…
